…
tsort.yaml, translate=0.1, val=True, verbose=True, vid_stride=1, visualize=False, warmup_bias_lr=0.1, warmup_epochs=3.0, warmup_momentum=0.8, weight_decay=0.0005, workers=8, workspace=None\r\n",
      "\u001b[KDownloading https://ultralytics.com/assets/Arial.ttf to '/root/.config/Ultralytics/Arial.ttf': 100% ━━━━━━━━━━━━ 755.1KB 13.7MB/s 0.1s\r\n",
      "Overriding model.yaml nc=80 with nc=1\r\n",
      "\r\n",
      "                   from  n    params  module                                       arguments                     \r\n",
      "  0                  -1  1       928  ultralytics.nn.modules.conv.Conv             [3, 32, 3, 2]                 \r\n",
      "  1                  -1  1     18560  ultralytics.nn.modules.conv.Conv             [32, 64, 3, 2]                \r\n",
      "  2                  -1  1     29056  ultralytics.nn.modules.block.C2f             [64, 64, 1, True]             \r\n",
      "  3                  -1  1     73984  ultralytics.nn.modules.conv.Conv             [64, 128, 3, 2]               \r\n",
      "  4                  -1  2    197632  ultralytics.nn.modules.block.C2f             [128, 128, 2, True]           \r\n",
      "  5                  -1  1    295424  ultralytics.nn.modules.conv.Conv             [128, 256, 3, 2]              \r\n",
      "  6                  -1  2    788480  ultralytics.nn.modules.block.C2f             [256, 256, 2, True]           \r\n",
      "  7                  -1  1   1180672  ultralytics.nn.modules.conv.Conv             [256, 512, 3, 2]              \r\n",
      "  8                  -1  1   1838080  ultralytics.nn.modules.block.C2f             [512, 512, 1, True]           \r\n",
      "  9                  -1  1    656896  ultralytics.nn.modules.block.SPPF            [512, 512, 5]                 \r\n",
      " 10                  -1  1         0  torch.nn.modules.upsampling.Upsample         [None, 2, 'nearest']          \r\n",
      " 11             [-1, 6]  1         0  ultralytics.nn.modules.conv.Concat           [1]                           \r\n",
      " 12                  -1  1    591360  ultralytics.nn.modules.block.C2f             [768, 256, 1]                 \r\n",
      " 13                  -1  1         0  torch.nn.modules.upsampling.Upsample         [None, 2, 'nearest']          \r\n",
      " 14             [-1, 4]  1         0  ultralytics.nn.modules.conv.Concat           [1]                           \r\n",
      " 15                  -1  1    148224  ultralytics.nn.modules.block.C2f             [384, 128, 1]                 \r\n",
      " 16                  -1  1    147712  ultralytics.nn.modules.conv.Conv             [128, 128, 3, 2]              \r\n",
      " 17            [-1, 12]  1         0  ultralytics.nn.modules.conv.Concat           [1]                           \r\n",
      " 18                  -1  1    493056  ultralytics.nn.modules.block.C2f             [384, 256, 1]                 \r\n",
      " 19                  -1  1    590336  ultralytics.nn.modules.conv.Conv             [256, 256, 3, 2]              \r\n",
      " 20             [-1, 9]  1         0  ultralytics.nn.modules.conv.Concat           [1]                           \r\n",
      " 21                  -1  1   1969152  ultralytics.nn.modules.block.C2f             [768, 512, 1]                 \r\n",
      " 22        [15, 18, 21]  1   2116435  ultralytics.nn.modules.head.Detect           [1, 16, None, [128, 256, 512]]\r\n",
      "Model summary: 130 layers, 11,135,987 parameters, 11,135,971 gradients, 28.6 GFLOPs\r\n",
      "\r\n",
      "Transferred 349/355 items from pretrained weights\r\n",
      "Freezing layer 'model.22.dfl.conv.weight'\r\n",
      "\u001b[34m\u001b[1mAMP: \u001b[0mrunning Automatic Mixed Precision (AMP) checks...\r\n",
      "\u001b[KDownloading https://github.com/ultralytics/assets/releases/download/v8.4.0/yolo26n.pt to 'yolo26n.pt': 100% ━━━━━━━━━━━━ 5.3MB 57.6MB/s 0.1s\r\n",
…
